__________________________________________________________________________________________________
Layer (type)                    Output Shape         Param #     Connected to                     
==================================================================================================
input_8 (InputLayer)            (None, 28, 28, 1)    0                                            
__________________________________________________________________________________________________
conv2d_15 (Conv2D)              (None, 24, 24, 6)    156         input_8[0][0]                    
__________________________________________________________________________________________________
average_pooling2d_15 (AveragePo (None, 12, 12, 6)    0           conv2d_15[0][0]                  
__________________________________________________________________________________________________
conv2d_16 (Conv2D)              (None, 8, 8, 16)     2416        average_pooling2d_15[0][0]       
__________________________________________________________________________________________________
average_pooling2d_16 (AveragePo (None, 4, 4, 16)     0           conv2d_16[0][0]                  
__________________________________________________________________________________________________
flatten_8 (Flatten)             (None, 256)          0           average_pooling2d_16[0][0]       
__________________________________________________________________________________________________
dense_19 (Dense)                (None, 120)          30840       flatten_8[0][0]                  
__________________________________________________________________________________________________
log_gauss_mf_4 (LogGaussMF)     (None, 10, 120)      2400        dense_19[0][0]                   
__________________________________________________________________________________________________
lambda_4 (Lambda)               (None, 10)           0           log_gauss_mf_4[0][0]             
__________________________________________________________________________________________________
dense_20 (Dense)                (None, 10)           1210        dense_19[0][0]                   
__________________________________________________________________________________________________
add_4 (Add)                     (None, 10)           0           lambda_4[0][0]                   
                                                                 dense_20[0][0]                   
__________________________________________________________________________________________________
activation_4 (Activation)       (None, 10)           0           add_4[0][0]                      
==================================================================================================
Total params: 37,022
Trainable params: 37,022
Non-trainable params: 0
__________________________________________________________________________________________________
Train on 60000 samples, validate on 10000 samples
Epoch 1/200
60000/60000 [==============================] - 10s 167us/step - loss: 0.1955 - acc: 0.9413 - val_loss: 0.0623 - val_acc: 0.9810
…
