__________________________________________________________________________________________________
Layer (type)                    Output Shape         Param #     Connected to                     
==================================================================================================
input_7 (InputLayer)            (None, 28, 28, 1)    0                                            
__________________________________________________________________________________________________
conv2d_13 (Conv2D)              (None, 24, 24, 6)    156         input_7[0][0]                    
__________________________________________________________________________________________________
average_pooling2d_13 (AveragePo (None, 12, 12, 6)    0           conv2d_13[0][0]                  
__________________________________________________________________________________________________
conv2d_14 (Conv2D)              (None, 8, 8, 16)     2416        average_pooling2d_13[0][0]       
__________________________________________________________________________________________________
average_pooling2d_14 (AveragePo (None, 4, 4, 16)     0           conv2d_14[0][0]                  
__________________________________________________________________________________________________
flatten_7 (Flatten)             (None, 256)          0           average_pooling2d_14[0][0]       
__________________________________________________________________________________________________
dense_17 (Dense)                (None, 120)          30840       flatten_7[0][0]                  
__________________________________________________________________________________________________
log_gauss_mf_3 (LogGaussMF)     (None, 10, 120)      2400        dense_17[0][0]                   
__________________________________________________________________________________________________
lambda_3 (Lambda)               (None, 10)           0           log_gauss_mf_3[0][0]             
__________________________________________________________________________________________________
dense_18 (Dense)                (None, 10)           1210        dense_17[0][0]                   
__________________________________________________________________________________________________
add_3 (Add)                     (None, 10)           0           lambda_3[0][0]                   
                                                                 dense_18[0][0]                   
__________________________________________________________________________________________________
activation_3 (Activation)       (None, 10)           0           add_3[0][0]                      
==================================================================================================
Total params: 37,022
Trainable params: 37,022
Non-trainable params: 0
__________________________________________________________________________________________________
Train on 60000 samples, validate on 10000 samples
Epoch 1/200
60000/60000 [==============================] - 10s 165us/step - loss: 0.2109 - acc: 0.9351 - val_loss: 0.0699 - val_acc: 0.9780
…
