_________________________________________________________________
Layer (type)                 Output Shape              Param #   
=================================================================
input_3 (InputLayer)         (None, 28, 28, 1)         0         
_________________________________________________________________
conv2d_5 (Conv2D)            (None, 24, 24, 6)         156       
_________________________________________________________________
average_pooling2d_5 (Average (None, 12, 12, 6)         0         
_________________________________________________________________
conv2d_6 (Conv2D)            (None, 8, 8, 16)          2416      
_________________________________________________________________
average_pooling2d_6 (Average (None, 4, 4, 16)          0         
_________________________________________________________________
flatten_3 (Flatten)          (None, 256)               0         
_________________________________________________________________
dense_6 (Dense)              (None, 120)               30840     
_________________________________________________________________
dense_7 (Dense)              (None, 84)                10164     
_________________________________________________________________
dense_8 (Dense)              (None, 10)                850       
=================================================================
Total params: 44,426
Trainable params: 44,426
Non-trainable params: 0
_________________________________________________________________
Train on 60000 samples, validate on 10000 samples
Epoch 1/200
60000/60000 [==============================] - 9s 151us/step - loss: 0.2138 - acc: 0.9344 - val_loss: 0.0901 - val_acc: 0.9703

Epoch 00001: val_acc improved from -inf to 0.97030, saving model to C:\Users\Ryan\Downloads\fmnist-resnet\saved_models\MNIST-LeNet-trial2_model.001.h5
…
