_________________________________________________________________
Layer (type)                 Output Shape              Param #   
=================================================================
input_4 (InputLayer)         (None, 28, 28, 1)         0         
_________________________________________________________________
conv2d_7 (Conv2D)            (None, 24, 24, 6)         156       
_________________________________________________________________
average_pooling2d_7 (Average (None, 12, 12, 6)         0         
_________________________________________________________________
conv2d_8 (Conv2D)            (None, 8, 8, 16)          2416      
_________________________________________________________________
average_pooling2d_8 (Average (None, 4, 4, 16)          0         
_________________________________________________________________
flatten_4 (Flatten)          (None, 256)               0         
_________________________________________________________________
dense_9 (Dense)              (None, 120)               30840     
_________________________________________________________________
dense_10 (Dense)             (None, 84)                10164     
_________________________________________________________________
dense_11 (Dense)             (None, 10)                850       
=================================================================
Total params: 44,426
Trainable params: 44,426
Non-trainable params: 0
_________________________________________________________________
Train on 60000 samples, validate on 10000 samples
Epoch 1/200
60000/60000 [==============================] - 9s 154us/step - loss: 0.2253 - acc: 0.9314 - val_loss: 0.0721 - val_acc: 0.9756

Epoch 00001: val_acc improved from -inf to 0.97560, saving model to C:\Users\Ryan\Downloads\fmnist-resnet\saved_models\MNIST-LeNet-trial3_model.001.h5
…
