C:\Users\YEG\Anaconda3\envs\tf-gpu\python.exe D:/PycharmProjects/NIPS_1_DNFIS/LeNet/MNIST_LeNet.py
Using TensorFlow backend.
_________________________________________________________________
Layer (type)                 Output Shape              Param #   
=================================================================
input_1 (InputLayer)         (None, 28, 28, 1)         0         
_________________________________________________________________
conv2d_1 (Conv2D)            (None, 24, 24, 6)         156       
_________________________________________________________________
average_pooling2d_1 (Average (None, 12, 12, 6)         0         
_________________________________________________________________
conv2d_2 (Conv2D)            (None, 8, 8, 16)          2416      
_________________________________________________________________
average_pooling2d_2 (Average (None, 4, 4, 16)          0         
_________________________________________________________________
flatten_1 (Flatten)          (None, 256)               0         
_________________________________________________________________
dense_1 (Dense)              (None, 120)               30840     
_________________________________________________________________
dense_2 (Dense)              (None, 84)                10164     
_________________________________________________________________
dense_3 (Dense)              (None, 10)                850       
=================================================================
Total params: 44,426
Trainable params: 44,426
Non-trainable params: 0
_________________________________________________________________
Train on 60000 samples, validate on 10000 samples
Epoch 1/200
2019-04-16 20:10:28.408192: I T:\src\github\tensorflow\tensorflow\core\common_runtime\gpu\gpu_device.cc:1405] Found device 0 with properties: 
…
