_________________________________________________________________
Layer (type)                 Output Shape              Param #   
=================================================================
input_2 (InputLayer)         (None, 28, 28, 1)         0         
_________________________________________________________________
conv2d_3 (Conv2D)            (None, 24, 24, 6)         156       
_________________________________________________________________
average_pooling2d_3 (Average (None, 12, 12, 6)         0         
_________________________________________________________________
conv2d_4 (Conv2D)            (None, 8, 8, 16)          2416      
_________________________________________________________________
average_pooling2d_4 (Average (None, 4, 4, 16)          0         
_________________________________________________________________
flatten_2 (Flatten)          (None, 256)               0         
_________________________________________________________________
dense_3 (Dense)              (None, 120)               30840     
_________________________________________________________________
dense_4 (Dense)              (None, 84)                10164     
_________________________________________________________________
dense_5 (Dense)              (None, 10)                850       
=================================================================
Total params: 44,426
Trainable params: 44,426
Non-trainable params: 0
_________________________________________________________________
Train on 60000 samples, validate on 10000 samples
Epoch 1/200
60000/60000 [==============================] - 10s 164us/step - loss: 0.2102 - acc: 0.9366 - val_loss: 0.0637 - val_acc: 0.9796

…
