__________________________________________________________________________________________________
Layer (type)                    Output Shape         Param #     Connected to                     
==================================================================================================
input_2 (InputLayer)            (None, 28, 28, 1)    0                                            
__________________________________________________________________________________________________
conv2d_3 (Conv2D)               (None, 24, 24, 6)    156         input_2[0][0]                    
__________________________________________________________________________________________________
average_pooling2d_3 (AveragePoo (None, 12, 12, 6)    0           conv2d_3[0][0]                   
__________________________________________________________________________________________________
conv2d_4 (Conv2D)               (None, 8, 8, 16)     2416        average_pooling2d_3[0][0]        
__________________________________________________________________________________________________
average_pooling2d_4 (AveragePoo (None, 4, 4, 16)     0           conv2d_4[0][0]                   
__________________________________________________________________________________________________
flatten_2 (Flatten)             (None, 256)          0           average_pooling2d_4[0][0]        
__________________________________________________________________________________________________
dense_4 (Dense)                 (None, 120)          30840       flatten_2[0][0]                  
__________________________________________________________________________________________________
log_gauss_mf_1 (LogGaussMF)     (None, 10, 120)      2400        dense_4[0][0]                    
__________________________________________________________________________________________________
lambda_1 (Lambda)               (None, 10)           0           log_gauss_mf_1[0][0]             
__________________________________________________________________________________________________
dense_5 (Dense)                 (None, 10)           1210        dense_4[0][0]                    
__________________________________________________________________________________________________
add_1 (Add)                     (None, 10)           0           lambda_1[0][0]                   
                                                                 dense_5[0][0]                    
__________________________________________________________________________________________________
activation_1 (Activation)       (None, 10)           0           add_1[0][0]                      
==================================================================================================
Total params: 37,022
Trainable params: 37,022
Non-trainable params: 0
__________________________________________________________________________________________________
Epoch 00001: val_acc improved from -inf to 0.76890, saving model to D:\PycharmProjects\NIPS_1_DNFIS\LeNet\FASHION_FUZZY_LENET_saved_models\Fuzzy-FMNIST-LeNet_model.001.h5
…
