__________________________________________________________________________________________________
Layer (type)                    Output Shape         Param #     Connected to                     
==================================================================================================
input_12 (InputLayer)           (None, 28, 28, 1)    0                                            
__________________________________________________________________________________________________
conv2d_23 (Conv2D)              (None, 24, 24, 6)    156         input_12[0][0]                   
__________________________________________________________________________________________________
average_pooling2d_23 (AveragePo (None, 12, 12, 6)    0           conv2d_23[0][0]                  
__________________________________________________________________________________________________
conv2d_24 (Conv2D)              (None, 8, 8, 16)     2416        average_pooling2d_23[0][0]       
__________________________________________________________________________________________________
average_pooling2d_24 (AveragePo (None, 4, 4, 16)     0           conv2d_24[0][0]                  
__________________________________________________________________________________________________
flatten_12 (Flatten)            (None, 256)          0           average_pooling2d_24[0][0]       
__________________________________________________________________________________________________
dense_30 (Dense)                (None, 120)          30840       flatten_12[0][0]                 
__________________________________________________________________________________________________
log_gauss_mf_5 (LogGaussMF)     (None, 10, 120)      2400        dense_30[0][0]                   
__________________________________________________________________________________________________
lambda_5 (Lambda)               (None, 10)           0           log_gauss_mf_5[0][0]             
__________________________________________________________________________________________________
dense_31 (Dense)                (None, 10)           1210        dense_30[0][0]                   
__________________________________________________________________________________________________
add_5 (Add)                     (None, 10)           0           lambda_5[0][0]                   
                                                                 dense_31[0][0]                   
__________________________________________________________________________________________________
activation_5 (Activation)       (None, 10)           0           add_5[0][0]                      
==================================================================================================
Total params: 37,022
Trainable params: 37,022
Non-trainable params: 0
__________________________________________________________________________________________________
Epoch 1/200
1875/1875 [==============================] - 13s 7ms/step - loss: 0.7779 - acc: 0.7099 - val_loss: 0.5663 - val_acc: 0.7915
…
