__________________________________________________________________________________________________
Layer (type)                    Output Shape         Param #     Connected to                     
==================================================================================================
input_10 (InputLayer)           (None, 28, 28, 1)    0                                            
__________________________________________________________________________________________________
conv2d_19 (Conv2D)              (None, 24, 24, 6)    156         input_10[0][0]                   
__________________________________________________________________________________________________
average_pooling2d_19 (AveragePo (None, 12, 12, 6)    0           conv2d_19[0][0]                  
__________________________________________________________________________________________________
conv2d_20 (Conv2D)              (None, 8, 8, 16)     2416        average_pooling2d_19[0][0]       
__________________________________________________________________________________________________
average_pooling2d_20 (AveragePo (None, 4, 4, 16)     0           conv2d_20[0][0]                  
__________________________________________________________________________________________________
flatten_10 (Flatten)            (None, 256)          0           average_pooling2d_20[0][0]       
__________________________________________________________________________________________________
dense_26 (Dense)                (None, 120)          30840       flatten_10[0][0]                 
__________________________________________________________________________________________________
log_gauss_mf_3 (LogGaussMF)     (None, 10, 120)      2400        dense_26[0][0]                   
__________________________________________________________________________________________________
lambda_3 (Lambda)               (None, 10)           0           log_gauss_mf_3[0][0]             
__________________________________________________________________________________________________
dense_27 (Dense)                (None, 10)           1210        dense_26[0][0]                   
__________________________________________________________________________________________________
add_3 (Add)                     (None, 10)           0           lambda_3[0][0]                   
                                                                 dense_27[0][0]                   
__________________________________________________________________________________________________
activation_3 (Activation)       (None, 10)           0           add_3[0][0]                      
==================================================================================================
Total params: 37,022
Trainable params: 37,022
Non-trainable params: 0
__________________________________________________________________________________________________
Epoch 1/200
1875/1875 [==============================] - 13s 7ms/step - loss: 0.7979 - acc: 0.7023 - val_loss: 0.5848 - val_acc: 0.7799
…
