__________________________________________________________________________________________________
Layer (type)                    Output Shape         Param #     Connected to                     
==================================================================================================
input_9 (InputLayer)            (None, 28, 28, 1)    0                                            
__________________________________________________________________________________________________
conv2d_17 (Conv2D)              (None, 24, 24, 6)    156         input_9[0][0]                    
__________________________________________________________________________________________________
average_pooling2d_17 (AveragePo (None, 12, 12, 6)    0           conv2d_17[0][0]                  
__________________________________________________________________________________________________
conv2d_18 (Conv2D)              (None, 8, 8, 16)     2416        average_pooling2d_17[0][0]       
__________________________________________________________________________________________________
average_pooling2d_18 (AveragePo (None, 4, 4, 16)     0           conv2d_18[0][0]                  
__________________________________________________________________________________________________
flatten_9 (Flatten)             (None, 256)          0           average_pooling2d_18[0][0]       
__________________________________________________________________________________________________
dense_24 (Dense)                (None, 120)          30840       flatten_9[0][0]                  
__________________________________________________________________________________________________
log_gauss_mf_2 (LogGaussMF)     (None, 10, 120)      2400        dense_24[0][0]                   
__________________________________________________________________________________________________
lambda_2 (Lambda)               (None, 10)           0           log_gauss_mf_2[0][0]             
__________________________________________________________________________________________________
dense_25 (Dense)                (None, 10)           1210        dense_24[0][0]                   
__________________________________________________________________________________________________
add_2 (Add)                     (None, 10)           0           lambda_2[0][0]                   
                                                                 dense_25[0][0]                   
__________________________________________________________________________________________________
activation_2 (Activation)       (None, 10)           0           add_2[0][0]                      
==================================================================================================
Total params: 37,022
Trainable params: 37,022
Non-trainable params: 0
__________________________________________________________________________________________________
Epoch 1/200
1875/1875 [==============================] - 13s 7ms/step - loss: 0.7895 - acc: 0.7065 - val_loss: 0.5737 - val_acc: 0.7826
…
