__________________________________________________________________________________________________
Layer (type)                    Output Shape         Param #     Connected to                     
==================================================================================================
input_11 (InputLayer)           (None, 28, 28, 1)    0                                            
__________________________________________________________________________________________________
conv2d_21 (Conv2D)              (None, 24, 24, 6)    156         input_11[0][0]                   
__________________________________________________________________________________________________
average_pooling2d_21 (AveragePo (None, 12, 12, 6)    0           conv2d_21[0][0]                  
__________________________________________________________________________________________________
conv2d_22 (Conv2D)              (None, 8, 8, 16)     2416        average_pooling2d_21[0][0]       
__________________________________________________________________________________________________
average_pooling2d_22 (AveragePo (None, 4, 4, 16)     0           conv2d_22[0][0]                  
__________________________________________________________________________________________________
flatten_11 (Flatten)            (None, 256)          0           average_pooling2d_22[0][0]       
__________________________________________________________________________________________________
dense_28 (Dense)                (None, 120)          30840       flatten_11[0][0]                 
__________________________________________________________________________________________________
log_gauss_mf_4 (LogGaussMF)     (None, 10, 120)      2400        dense_28[0][0]                   
__________________________________________________________________________________________________
lambda_4 (Lambda)               (None, 10)           0           log_gauss_mf_4[0][0]             
__________________________________________________________________________________________________
dense_29 (Dense)                (None, 10)           1210        dense_28[0][0]                   
__________________________________________________________________________________________________
add_4 (Add)                     (None, 10)           0           lambda_4[0][0]                   
                                                                 dense_29[0][0]                   
__________________________________________________________________________________________________
activation_4 (Activation)       (None, 10)           0           add_4[0][0]                      
==================================================================================================
Total params: 37,022
Trainable params: 37,022
Non-trainable params: 0
__________________________________________________________________________________________________
Epoch 1/200
1875/1875 [==============================] - 13s 7ms/step - loss: 0.7958 - acc: 0.7061 - val_loss: 0.5656 - val_acc: 0.7914
…
