_________________________________________________________________
Layer (type)                 Output Shape              Param #   
=================================================================
input_4 (InputLayer)         (None, 28, 28, 1)         0         
_________________________________________________________________
conv2d_7 (Conv2D)            (None, 24, 24, 6)         156       
_________________________________________________________________
average_pooling2d_7 (Average (None, 12, 12, 6)         0         
_________________________________________________________________
conv2d_8 (Conv2D)            (None, 8, 8, 16)          2416      
_________________________________________________________________
average_pooling2d_8 (Average (None, 4, 4, 16)          0         
_________________________________________________________________
flatten_4 (Flatten)          (None, 256)               0         
_________________________________________________________________
dense_10 (Dense)             (None, 120)               30840     
_________________________________________________________________
dense_11 (Dense)             (None, 84)                10164     
_________________________________________________________________
dense_12 (Dense)             (None, 10)                850       
=================================================================
Total params: 44,426
Trainable params: 44,426
Non-trainable params: 0
_________________________________________________________________
Epoch 1/200
1875/1875 [==============================] - 13s 7ms/step - loss: 0.7930 - acc: 0.7014 - val_loss: 0.6151 - val_acc: 0.7592

Epoch 00001: val_acc improved from -inf to 0.75920, saving model to C:\Users\Ryan\Downloads\fmnist-resnet\saved_models\LeNet-trial1_model.001.h5
…
