_________________________________________________________________
Layer (type)                 Output Shape              Param #   
=================================================================
input_7 (InputLayer)         (None, 28, 28, 1)         0         
_________________________________________________________________
conv2d_13 (Conv2D)           (None, 24, 24, 6)         156       
_________________________________________________________________
average_pooling2d_13 (Averag (None, 12, 12, 6)         0         
_________________________________________________________________
conv2d_14 (Conv2D)           (None, 8, 8, 16)          2416      
_________________________________________________________________
average_pooling2d_14 (Averag (None, 4, 4, 16)          0         
_________________________________________________________________
flatten_7 (Flatten)          (None, 256)               0         
_________________________________________________________________
dense_19 (Dense)             (None, 120)               30840     
_________________________________________________________________
dense_20 (Dense)             (None, 84)                10164     
_________________________________________________________________
dense_21 (Dense)             (None, 10)                850       
=================================================================
Total params: 44,426
Trainable params: 44,426
Non-trainable params: 0
_________________________________________________________________
Epoch 1/200
1875/1875 [==============================] - 13s 7ms/step - loss: 0.7709 - acc: 0.7090 - val_loss: 0.5649 - val_acc: 0.7751

Epoch 00001: val_acc improved from -inf to 0.77510, saving model to C:\Users\Ryan\Downloads\fmnist-resnet\saved_models\LeNet-trial4_model.001.h5
…
