_________________________________________________________________
Layer (type)                 Output Shape              Param #   
=================================================================
input_6 (InputLayer)         (None, 28, 28, 1)         0         
_________________________________________________________________
conv2d_11 (Conv2D)           (None, 24, 24, 6)         156       
_________________________________________________________________
average_pooling2d_11 (Averag (None, 12, 12, 6)         0         
_________________________________________________________________
conv2d_12 (Conv2D)           (None, 8, 8, 16)          2416      
_________________________________________________________________
average_pooling2d_12 (Averag (None, 4, 4, 16)          0         
_________________________________________________________________
flatten_6 (Flatten)          (None, 256)               0         
_________________________________________________________________
dense_16 (Dense)             (None, 120)               30840     
_________________________________________________________________
dense_17 (Dense)             (None, 84)                10164     
_________________________________________________________________
dense_18 (Dense)             (None, 10)                850       
=================================================================
Total params: 44,426
Trainable params: 44,426
Non-trainable params: 0
_________________________________________________________________
Epoch 1/200
1875/1875 [==============================] - 13s 7ms/step - loss: 0.7941 - acc: 0.7026 - val_loss: 0.5852 - val_acc: 0.7805

Epoch 00001: val_acc improved from -inf to 0.78050, saving model to C:\Users\Ryan\Downloads\fmnist-resnet\saved_models\LeNet-trial3_model.001.h5
…
