C:\Users\YEG\Anaconda3\envs\tf-gpu\python.exe D:/PycharmProjects/NIPS_1_DNFIS/LeNet/CIFAR_LeNet.py
Using TensorFlow backend.
_________________________________________________________________
Layer (type)                 Output Shape              Param #   
=================================================================
input_1 (InputLayer)         (None, 32, 32, 3)         0         
_________________________________________________________________
conv2d_1 (Conv2D)            (None, 28, 28, 6)         456       
_________________________________________________________________
average_pooling2d_1 (Average (None, 14, 14, 6)         0         
_________________________________________________________________
conv2d_2 (Conv2D)            (None, 10, 10, 16)        2416      
_________________________________________________________________
average_pooling2d_2 (Average (None, 5, 5, 16)          0         
_________________________________________________________________
flatten_1 (Flatten)          (None, 400)               0         
_________________________________________________________________
dense_1 (Dense)              (None, 120)               48120     
_________________________________________________________________
dense_2 (Dense)              (None, 84)                10164     
_________________________________________________________________
dense_3 (Dense)              (None, 10)                850       
=================================================================
Total params: 62,006
Trainable params: 62,006
Non-trainable params: 0
_________________________________________________________________
Epoch 1/200
2019-04-16 22:51:22.362412: I T:\src\github\tensorflow\tensorflow\core\common_runtime\gpu\gpu_device.cc:1405] Found device 0 with properties: 
name: GeForce GTX 970 major: 5 minor: 2 memoryClockRate(GHz): 1.253
…
